data/hey_gert.tflite (tflite, 206964 bytes, 9 tensors)

arith.constant f4 [1, 32]
-0.008865713 0.047962293 -0.32669166 0.0987734 0.16352238 0.104262434 0.17495322 0.11809232
-0.028507534 0.12767659 -0.39033565 0.16518493 0.117555894 -0.36553833 0.014861001 0.12013413
-0.08632968 -0.013218924 -0.33842602 -0.014913238 0.053913422 0.2144744 0.1278424 0.15113285
0.09250387 -0.3864147 0.15503411 0.10506159 0.029624093 -0.33499533 -0.35107005 0.1288548
00000000: 7f41 11bc 1c74 443d 2144 a7be b549 ca3d
00000010: 6972 273e 8b87 d53d f026 333e 63da f13d
00000020: a288 e9bc a7bd 023e 13da c7be 3d26 293e
00000030: 25c1 f03d d727 bbbe 8e7b 733c e208 f63d
00000040: 9ecd b0bd 3094 58bc 2d46 adbe a756 74bc
00000050: 52d4 5c3d 2d9f 5b3e 1ee9 023e 92c2 1a3e
00000060: ab72 bd3d 26d8 c5be 43c1 1e3e 882a d73d
00000070: 3aae f23c 8284 abbe 74bf b3be 83f2 033e

arith.constant1 f4 [32, 32]
-0.07334222 0.16765107 -0.07335247 -0.11648371 -0.1479572 -0.020077193 -0.008854033 0.015023867
0.028151484 0.15793966 0.020651268 0.1397334 -0.10123983 -0.020761529 -0.09349759 -0.01903092
-0.06897945 0.11958767 -0.030938784 -0.10311567 -0.01695606 -0.041611683 0.08615739 0.17179365
-0.043588486 0.07691922 0.04301419 -0.021996552 0.03187948 0.04517411 0.09995971 0.08916042
-0.10387326 0.05759665 -0.12341481 0.15366893 -0.02902775 0.013278136 -0.031983156 -0.1265994
-0.004050099 -0.05855381 -0.029714987 0.0021079397 0.047883935 -0.057084125 -0.091723144 0.17812555
0.10967171 -0.09058681 -0.06986995 -0.13680698 0.09852875 -0.1739949 -0.13188976 -0.1606992
0.007534485 0.14216204 0.10742874 0.09467003 -0.0823722 0.045910396 0.038849186 0.06547392
0.16034529 0.054264974 0.11807388 -0.16918117 -0.15769109 -0.069258854 0.10625519 0.15290922
-0.17420726 -0.059823014 -0.14368209 -0.17113264 0.08307103 0.018705696 0.053132378 -0.10795468
-0.15970518 0.19393197 0.11901545 -0.16949058 0.10501793 0.095201634 0.020663016 -0.03235191
0.13408868 -0.09024557 0.0073909387 0.06137978 -0.1353392 -0.11637381 -0.12978616 0.116368905
0.090459846 0.20832498 -0.040761083 -0.0755487 -0.026910566 0.107456066 0.041139636 0.057407107
-0.09461521 0.16523279 0.11674375 0.001216875 -0.101913124 0.026354343 -0.050456833 -0.11486302
-0.14778918 -0.052461144 -0.12816648 0.14849283 0.054389786 0.24504547 0.1548786 0.10745191
0.14356878 -0.09268252 -0.09574376 -0.14496827 0.00813993 -0.17013998 0.10069854 0.0605691
0.04412274 -0.07954115 -0.10357683 0.030340923 -0.04431235 -0.013347412 -0.11697747 0.16910203
-0.1671606 0.07317406 0.16501643 -0.0045982893 -0.057748944 -0.12731758 0.0076549337 0.18383172
-0.10395553 -0.030963823 -0.17496319 -0.0054185735 0.117838435 0.1906862 0.1495987 0.05614748
-0.064217515 -0.15252395 -0.05879517 0.08984613 0.11519263 0.061599523 -0.044403337 -0.15135378
-0.0592612 -0.022410836 0.10910804 -0.15097493 -0.07713479 -0.04469679 0.07858839 -0.10058242
-0.0493327 0.12099458 0.066334665 0.08367643 0.084673256 0.08640307 0.19723378 -0.06627843
-0.05548086 -0.035349272 -0.10054569 0.030963192 -0.093177065 -0.024259692 -0.05821204 -0.1591272
-0.13302296 0.07867023 -0.06384186 -0.055716522 0.14040601 0.107128404 0.050744217 -0.08839387
-0.0072666956 -0.006134491 0.080505095 0.077353075 -0.06386412 0.16815126 0.14245102 -0.16083807
-0.15967825 -0.13134897 0.16374572 -0.1140546 -0.12797499 0.12484026 0.083873585 0.047663495
-0.012495868 -0.05370053 0.07703401 0.030161427 -0.15532178 0.20970227 0.108815946 0.159897
-0.11718896 0.1268583 -0.05894562 -0.11529057 0.043288246 0.07574594 -0.06972761 -0.10146262
-0.03764881 0.16452469 -0.12949236 0.13723382 0.122625604 -0.01306047 -0.111767165 -0.060687926
0.03594183 -0.06346912 0.15250903 -0.06771496 0.0056544556 -0.14848165 0.0124112 0.029284993
0.117440574 -0.06903276 -0.16093609 -0.025339104 -0.0045153415 0.21077994 -0.016182926 0.07070914
-0.055951122 0.004491686 -0.10026733 -0.0028283042 0.1561647 0.17465828 -0.1355474 -0.019615144
00000000: 7234 96bd b9ac 2b3e d239 96bd 038f eebd
00000010: 1882 17be ed78 a4bc 8210 11bc aa26 763c
00000020: f19d e63c efba 213e d92c a93c 4616 0f3e
00000030: d456 cfbd 1514 aabc aa7b bfbd bbe6 9bbc
00000040: 1945 8dbd 61ea f43d 5573 fdbc 4f2e d3bd
00000050: 6fe7 8abc 0371 2abd 4973 b03d adea 2f3e
00000060: d789 32bd d387 9d3d a62f 303d 1d32 b4bc
00000070: 0f94 023d 7d08 393d adb7 cc3d bd99 b63d
00000080: 81bb d4bd 77ea 6b3d e7c0 fcbd 635b 1d3e
00000090: 9bcb edbc 8a8c 593c c500 03bd 46a3 01be
000000a0: b1b6 84bb 1fd6 6fbd d86c f3bc 5c25 0a3b
000000b0: f221 443d 0bd1 69bd 58d9 bbbd 8b66 363e
000000c0: 909b e03d 9485 b9bd fa17 8fbd 2117 0cbe
000000d0: 71c9 c93d b82b 32be 1c0e 07be 558e 24be
000000e0: d7e3 f63b ed92 113e 9903 dc3d 5ce2 c13d
000000f0: c2b2 a8bd 8a0c 3c3d 5320 1f3d 3117 863d
00000100: 8e31 243e f344 5e3d b8d0 f13d d43d 2dbe
00000110: c679 21be 96d7 8dbd 529c d93d 3c94 1c3e
00000120: 6363 32be fa08 75bd 6621 13be 653d 2fbe
00000130: 2521 aa3d b03c 993c 56a1 593d 5817 ddbd
00000140: c189 23be 1a96 463e 5fbe f33d f08e 2dbe
00000150: a413 d73d 13f9 c23d 7c45 a93c 7083 04bd
00000160: 8b4e 093e abd2 b8bd b02f f23b 5d69 7b3d
00000170: 5c96 0abe 6455 eebd aae6 04be d252 ee3d
00000180: 0343 b93d 2553 553e 18f5 26bd 47b9 9abd
00000190: 8c73 dcbc ed11 dc3d 0982 283d b723 6b3d
000001a0: 9fc5 c1bd c932 293e 5917 ef3d 8d7f 9f3a
000001b0: d4b7 d0bd 10e5 d73c d3ab 4ebd 4e3d ebbd
000001c0: 0c56 17be 7fe1 56bd 133e 03be 810e 183e
000001d0: d3c7 5e3d 33ed 7a3e 7f98 1e3e bf0f dc3d
000001e0: b203 133e 55d0 bdbd 4e15 c4bd 9072 14be
000001f0: 575d 053c 2d39 2ebe 093b ce3d 4e17 783d
00000200: 0cba 343d 78e6 a2bd 1720 d4bd 878d f83c
00000210: de80 35bd 1baf 5abc e291 efbd 1529 2d3e
00000220: 262c 2bbe 48dc 953d 11fa 283e 3fad 96bb
00000230: 288a 6cbd 8a5f 02be 3dd6 fa3b 623e 3c3e
00000240: a3e6 d4bd d8a7 fdbc 8d29 33be 4a8e b1bb
00000250: 4755 f13d 3e43 433e 6730 193e e6fa 653d
00000260: 7984 83bd 3d2f 1cbe 34d3 70bd 3f01 b83d
00000270: 1dea eb3d c84f 7c3d 46e0 35bd 7cfc 1abe
00000280: dfbb 72bd ee96 b7bc 0974 df3d 2c99 1abe
00000290: d8f8 9dbd fb13 37bd f3f2 a03d 28fe cdbd
000002a0: 1611 4abd 02cc f73d 78da 873d 8c5e ab3d
000002b0: 2c69 ad3d 18f4 b03d a7f7 493e fcbc 87bd
000002c0: e63f 63bd 66ca 10bd e6ea cdbd 85a6 fd3c
000002d0: 9ed3 bebd 43bc c6bc c06f 6ebd 3ef2 22be
000002e0: 2c37 08be dc1d a13d 85bf 82bd 0237 64bd
000002f0: 98c6 0f3e 2366 db3d 2bd9 4f3d d807 b5bd
00000300: 761d eebb d703 c9bb dbdf a43d 4a6b 9e3d
00000310: 31cb 82bd d82f 2c3e aede 113e bcb2 24be
00000320: b282 23be 5880 06be f5ac 273e 7595 e9bd
00000330: e00b 03be 40ac ff3d eac5 ab3d cc3a 433d
00000340: 78bb 4cbc 16f5 5bbd 02c4 9d3d 1915 f73c
00000350: ac0c 1fbe 31bc 563e e5da de3d 0abc 233e
00000360: c400 f0bd 24e7 013e f670 71bd 761d ecbd
00000370: 044f 313d b020 9b3d 59cd 8ebd a2cb cfbd
00000380: a335 1abd 2979 283e a599 04be 0687 0c3e
00000390: 2223 fb3d 95fb 55bc 2fe6 e4bd e793 78bd
000003a0: be37 133d 19fc 81bd 542b 1c3e 24ae 8abd
000003b0: 0349 b93b 930b 18be 5958 4b3c 15e7 ef3c
000003c0: af84 f03d 0c61 8dbd 6ecc 24be f493 cfbc
000003d0: 6ef5 93bb b2d6 573e 0e92 84bc f4cf 903d
000003e0: 012d 65bd fe2e 933b f558 cdbd 125b 39bb
000003f0: a4e9 1f3e 9fd9 323e f0cc 0abe f0af a0bc

arith.constant2 f4 [32, 1536]
0.0066667963 -0.014136739 0.016157854 0.0075467178 -0.005576989 -0.015694922 0.012886234 -0.00022926222
0.01611258 0.022462752 0.0012477029 0.00690145 0.017528629 -0.0077788797 -0.003936365 0.0038141902
0.023327129 -0.029067509 0.008590839 0.0042229663 0.023066947 -0.019879585 0.012164165 0.018367097
0.01897867 -0.003421844 -0.010516842 -0.0058054053 0.004267859 0.01860161 -0.0036925096 -0.015571281
-0.017685246 -0.00079625816 -0.0025690135 0.02159597 -0.020620197 0.0020221546 -0.0019650522 -0.008903055
0.0025223293 0.010139587 0.023960682 -0.00043623065 -0.013472578 -0.005506097 -0.0071565267 0.026750758
-0.002366813 -0.03871967 -0.020505061 0.013480865 0.025845328 -0.03184172 -0.0127514675 -0.0038020327
-0.008831438 0.0070827515 -0.017638482 0.014362115 -0.014022852 9.793467e-05 -0.027380276 0.019215781
0.0037735465 -0.009305642 -0.051054798 -0.021564238 -0.0030850063 0.0018131827 0.021860568 0.0028039191
0.010135596 0.0020243826 0.02090424 0.009065125 -0.022910997 0.0003217433 0.016513899 0.012627289
0.026930358 -0.0047705066 -0.01026379 -0.0070580356 0.022937614 -0.012145335 0.0030280633 0.014407476
-0.0072581107 0.019651994 0.020909356 -0.0021142385 -0.01567738 -0.0031626467 0.010053885 0.0048067262
0.011229103 0.008740454 0.012553564 -0.00846399 -0.017047008 0.017289598 -0.0064724605 0.012771149
0.025086468 0.025980415 -0.017132035 -0.0033698892 0.036332253 -0.009160972 -0.013387242 0.03594256
0.032578655 -0.026808944 -0.019834695 -0.022023227 0.0007770925 -0.015948307 -0.012687926 -0.018519264
-0.019624848 0.0063259387 -0.022443082 -0.017919108 0.015681602 -0.00013667984 -0.036684204 0.014700778
0.010659666 -0.007312563 0.026898887 0.025409907 -0.014492467 0.0018087879 0.009944065 0.020269534
-0.012837875 0.028325267 -0.004268796 0.0042987852 0.013241819 0.010248007 0.012813651 -0.004435918
0.008800459 -0.015754368 -0.011213082 -0.0013209641 -0.0010195037 -0.00020203528 0.01003022 0.0068155695
0.019646818 0.008140928 -0.0023834493 -0.0008109368 -0.011314731 -0.013375519 -0.009634023 -0.020258276
0.014943435 0.020682793 -0.03205696 0.000735986 -0.009612408 0.02860722 0.026706344 0.030683253
-0.013886755 -0.006947109 -0.0035873777 0.00016795537 0.0009344117 -0.0054897065 -0.0071558612 -0.022806795
-0.009055344 0.029345807 -0.011349872 -0.018943977 0.012752912 0.02382793 -0.01105793 0.00408364
0.004261249 0.016802255 -0.0026122043 -6.133878e-07 0.01662172 -0.007470138 0.030680513 0.002678037
-0.0034423652 -0.018893972 0.01598649 0.0011190269 -0.005798437 0.017217653 -0.015014919 0.0036746825
0.012246104 0.012411701 -0.009098436 0.03257623 0.011808572 0.0040452066 0.013681881 -0.009498984
0.016535811 -0.0217989 -0.015834523 -0.01332179 -0.0034939854 0.003182039 -0.023696046 -0.0022044436
-0.020764712 -0.00091798085 -0.007043264 0.007564209 -0.0114772795 0.01199297 0.011640097 0.005592642
0.00576875 0.019085625 0.0012601687 -0.00066766556 0.0040668775 0.021691795 -0.0143453535 0.0018551141
0.022380756 -0.024667593 0.010928443 -0.015328906 -0.014871776 -0.012830429 -0.018462874 0.0019285099
-0.0048115323 -0.019024147 -0.014572528 0.008339594 0.028603928 -0.011998875 -0.022400236 0.014150082
-0.021505253 -0.014859257 0.007974575 0.014411376 0.0059672417 -0.00018728597 -0.0059859483 0.020246271
00000000: 2475 da3b c89d 67bc 7a5d 843c 754a f73b
00000010: 2dbf b6bb a392 80bc c820 533c 1c66 70b9
00000020: 88fe 833c ce03 b83c f689 a33a 8f25 e23b
00000030: 3398 8f3c f9e5 febb 9ffc 80bb 7ef7 793b
00000040: 8918 bf3c fc1e eebc 97c0 0c3c cf60 8a3b
00000050: e5f6 bc3c 83da a2bc 354c 473c 9876 963c
00000060: 2879 9b3c 0441 60bb d54e 2cbc 453b bebb
00000070: 65d9 8b3b 6762 983c 08fe 71bb b01e 7fbc
00000080: a6e0 90bc fbbb 50ba e55c 28bb 08ea b03c
00000090: b0eb a8bc 2086 043b 1bc8 00bb 1fde 11bc
000000a0: aa4d 253b 8320 263c 3149 c43c e3b5 e4b9
000000b0: 16bc 5cbc 7d6c b4bb 4c81 eabb 6824 db3c
000000c0: 881c 1bbb 8498 1ebd 3bfa a7bc d9de 5c3c
000000d0: 95b9 d33c 776c 02bd 88eb 50bc 862b 79bb
000000e0: bcb1 10bc 6d16 e83b 947e 90bc 144f 6b3c
000000f0: 1bc0 65bc 4762 cd38 9a4c e0bc 6a6a 9d3c
00000100: 9b4d 773b b176 18bc d61e 51bd 7ca7 b0bc
00000110: d12d 4abb 51a8 ed3a ef14 b33c f5c1 373b
00000120: c50f 263c 81ab 043b 5e3f ab3c e485 143c
00000130: d8af bbbc a8af a839 2848 873c b0e2 4e3c
00000140: 0e9d dc3c e951 9cbb 7529 28bc 1847 e7bb
00000150: aae7 bb3c 3afd 46bc 7972 463b 560d 6c3c
00000160: 72d5 edbb 38fd a03c 194a ab3c 098f 0abb
00000170: d96d 80bc 6844 4fbb 0db9 243c be81 9d3b
00000180: 46fa 373c 1f34 0f3c 77ad 4d3c 8cac 0abc
00000190: 2ba6 8bbc eaa2 8d3c ef16 d4bb 153e 513c
000001a0: 2382 cd3c e1d4 d43c 7b58 8cbc 5cd9 5cbb
000001b0: 21d1 143d e717 16bc 2a56 5bbc 8138 133d
000001c0: 3271 053d 6e9e dbbc 5f7c a2bc 0e6a b4bc
000001d0: cbb5 4b3a 06a6 82bc 05e1 4fbc b6b5 97bc
000001e0: 4ac4 a0bc d249 cf3b 8eda b7bc 18cb 92bc
000001f0: b476 803c b751 0fb9 2d42 16bd 88db 703c
00000200: e1a5 2e3c 399e efbb 0e5b dc3c 7028 d03c
00000210: d071 6dbc da14 ed3a 6eec 223c 4b0c a63c
00000220: f355 52bc 640a e83c 42e1 8bbb d3dc 8c3b
00000230: 37f4 583c 42e7 273c 59f0 513c 2d5b 91bb
00000240: cd2f 103c 4e0f 81bc 13b7 37bc 3324 adba
00000250: dea0 85ba 6fd9 53b9 cb55 243c 2455 df3b
00000260: 5df2 a03c 8761 053c a533 1cbb 0c95 54ba
00000270: 6c61 39bc fe24 5bbc 05d8 1dbc aff4 a5bc
00000280: 4fd5 743c f66e a93c 294e 03bd 2fef 403a
00000290: 5c7d 1dbc b059 ea3c 43c7 da3c 725b fb3c
000002a0: 4685 63bc 93a4 e3bb 361a 6bbb 2d1d 3039
000002b0: 4ff3 743a ffe2 b3bb b77b eabb 51d5 babc
000002c0: de5c 14bc 9e66 f03c d0f4 39bc 6630 9bbc
000002d0: 97f1 503c cb32 c33c 522c 35bc 0ed0 853b
000002e0: f3a1 8b3b e2a4 893c 8431 2bbb b0a7 24b5
000002f0: 462a 883c 0fc8 f4bb b355 fb3c 0182 2f3b
00000300: 4e99 61bb 88c7 9abc 19f6 823c 50ac 923a
00000310: d100 bebb 090c 8d3c 2301 76bc f1d2 703b
00000320: e2a3 483c 725a 4b3c 9b11 15bc a76e 053d
00000330: be78 413c a78d 843b f829 603c a0a1 1bbc
00000340: 1c76 873c 9b93 b2bc 67b7 81bc a343 5abc
00000350: 59fb 64bb c189 503b 361e c2bc 6d78 10bb
00000360: c21a aabc a7a4 70ba 2ecb e6bb 2fdd f73b
00000370: 330b 3cbc 297e 443c 1bb6 3e3c 7b42 b73b
00000380: c807 bd3b 7559 9c3c 3f2c a53a 4706 2fba
00000390: 7143 853b feb2 b13c c608 6bbc 4d27 f33a
000003a0: d957 b73c b113 cabc 360d 333c 1726 7bbc
000003b0: c0a8 73bc b836 52bc 743f 97bc 0ec6 fc3a
000003c0: 0faa 9dbb 87d8 9bbc 9dc1 6ebc cba2 083c
000003d0: c952 ea3c ee96 44bc b380 b7bc bfd5 673c
000003e0: c92b b0bc 3e74 73bc cba7 023c b11d 6c3c
000003f0: da88 c33b 3262 44b9 c625 c4bb 82db a53c

model_8/tf.__operators__.add/AddV2/y f4 [32]
0.0112304855 -0.005544673 0.0098166 -0.0056073833 -0.018654188 -0.023455068 -0.012195587 -0.012782632
0.020980263 0.02455399 0.0014798667 0.016151948 0.0033442914 -0.024177205 -0.010323973 -0.025324713
0.013200237 0.022111073 -0.0021533957 -0.021244925 0.018155118 -0.0034641095 0.01952361 -0.0069347587
0.026276704 0.008690522 0.007452517 -0.013235291 0.0018782318 0.012788874 -0.022106817 0.0017503058
00000000: 1200 383c 17b0 b5bb ced5 203c 24be b7bb
00000010: abd0 98bc d824 c0bc 00d0 47bc 3f6e 51bc
00000020: cdde ab3c 7325 c93c 16f8 c13a 1751 843c
00000030: e62b 5b3b 460f c6bc e225 29bc c675 cfbc
00000040: cf45 583c 4822 b53c fc1f 0dbb d609 aebc
00000050: 0bba 943c 1d06 63bb faef 9f3c f93c e3bb
00000060: 3e42 d73c b162 0e3c 3e34 f43b d5d8 58bc
00000070: 002f f63a 6d88 513c 5b19 b5bc 846a e53a

model_8/tf.__operators__.add_1/AddV2/y f4 [32]
0.015600622 -0.17041095 0.020818492 -0.042133633 0.13799909 0.107821606 0.065890856 0.09961254
0.047405895 -0.07545714 0.002810264 0.04927436 -0.006851801 0.04631264 0.08960997 0.20221832
-0.0909788 -0.11130388 0.10838284 -0.12484777 0.15050454 -0.027615337 0.11466993 -0.042489402
0.15402654 0.16488774 0.0061433865 0.012096229 0.0949962 0.11314721 0.15226445 0.058084086
00000000: c099 7f3c 3580 2ebe 8b8b aa3c 5194 2cbd
00000010: a24f 0d3e 93d1 dc3d c9f1 863d a901 cc3d
00000020: af2c 423d 4689 9abd 682c 383b e9d3 493d
00000030: 1385 e0bb 53b2 3d3d 6f85 b73d 5212 4f3e
00000040: 1853 babd 4af3 e3bd d3f7 dd3d 30b0 ffbd
00000050: dd1d 1a3e 8f39 e2bc 11d8 ea3d 5e09 2ebd
00000060: 22b9 1d3e 55d8 283e 764e c93b 432f 463c
00000070: 5e8d c23d b9b9 e73d 36eb 1b3e 94e9 6d3d

model_8/tf.math.add_2/Add/y f4 [1, 32]
0.020959757 -0.00034640383 0.00040031524 -0.014166893 0.013059284 -0.022265423 -0.0030752728 -0.015629398
0.0081674205 -0.0149813965 -0.016132712 0.0034463692 -0.013988753 0.0029227566 0.0036204741 0.031082492
0.0069561503 -0.0023921118 0.030295251 0.010093079 0.0058778515 -0.030745178 -0.027477896 -0.015083358
0.011775231 0.03128116 -0.006163247 0.014711395 -0.015696274 -0.014142831 -0.013397016 -0.017315025
00000000: ccb3 ab3c 899d b5b9 67e1 d139 421c 68bc
00000010: 9bf6 553c fa65 b6bc 848a 49bb 3909 80bc
00000020: a5d0 053c 8874 75bc c028 84bc 7bdc 613b
00000030: 1531 65bc b88b 3f3b 7a45 6d3b b6a0 fe3c
00000040: 6bf0 e33b fac4 1cbb bf2d f83c 715d 253c
00000050: fe9a c03b 50dd fbbc 5319 e1bc 3020 77bc
00000060: e6ec 403c ac20 003d 10f5 c9bb 1008 713c
00000070: 7995 80bc 55b7 67bc 287f 5bbc 3dd8 8dbc

model_8/tf.math.add_5/Add/y f4 [1, 32]
0.010568848 -0.004844948 0.279379 0.010891709 -0.01759923 0.023026176 0.021652985 0.0037236717
-0.025538838 -0.061615553 0.258143 0.002794173 -0.0015580455 0.26329908 0.007232645 0.028870367
0.050142534 0.016205553 0.27188757 0.026116023 0.02969237 0.051398385 0.07460533 -0.0049366583
0.059369408 0.38157722 0.017111044 0.01453776 0.008684317 0.28739044 0.2966376 0.0114013525
00000000: f628 2d3c 5fc2 9ebb c40a 8f3e 2373 323c
00000010: 432c 90bc 64a1 bc3c 9a61 b13c d808 743b
00000020: d336 d1bc 9760 7cbd 522b 843e 721e 373b
00000030: 5537 ccba 23cf 863e d3ff ec3b 8c81 ec3c
00000040: 4262 4d3d 82c1 843c d934 8b3e 45f1 d53c
00000050: 6a3d f33c 1d87 523d aeca 983d b1c3 a1bb
00000060: 562d 733d 175e c33e 762c 8c3c c92f 6e3c
00000070: aa48 0e3c d724 933e e2e0 973e bdcc 3a3c

model_8/tf.math.multiply_10/Mul/y f4 [1, 32]
1.0190679 1.0306846 0.94533485 0.99768955 0.972878 0.99380594 0.9922202 0.99295086
0.9892471 0.9970168 0.99247205 1.0025797 0.98956895 1.0089036 0.931552 1.0203538
1.0095145 0.9905575 0.98197305 0.9807884 1.005501 0.98106587 0.97707 0.99542576
1.0160024 0.98689586 0.9587204 1.0336212 0.997368 0.99780726 0.9911622 0.9971324
00000000: d170 823f 79ed 833f 7701 723f 9568 7f3f
00000010: 880e 793f 116a 7e3f 2502 7e3f 0732 7e3f
00000020: 4c3f 7d3f 7e3c 7f3f a612 7e3f 8854 803f
00000030: 6454 7d3f c123 813f 317a 6e3f f49a 823f
00000040: c537 813f 2d95 7d3f 9662 7b3f f314 7b3f
00000050: 42b4 803f 2227 7b3f 4221 7a3f 39d4 7e3f
00000060: 5e0c 823f 35a5 7c3f b36e 753f b34d 843f
00000070: 8253 7f3f 4c70 7f3f cebc 7d3f 1244 7f3f

model_8/tf.math.multiply_22/Mul/y f4 [1, 32]
1.0063472 0.99686104 1.2705324 1.023935 0.9950904 1.033377 1.0415035 1.0023365
0.9597446 0.9564248 1.2428645 1.0081984 0.99568576 1.2519851 1.0211326 1.0307022
1.0127448 1.0097629 1.2645775 1.0211394 1.036748 1.0700098 1.0952106 0.99698913
1.0928757 1.4929291 1.0370309 1.01064 1.0101136 1.3015105 1.3298519 1.0040306
00000000: fccf 803f 4932 7f3f cea0 a23f 4d10 833f
00000010: 3fbe 7e3f b345 843f fd4f 853f 904c 803f
00000020: d2b1 753f 41d8 743f 2f16 9f3f a50c 813f
00000030: 43e5 7e3f 0c41 a03f 79b4 823f 0dee 833f
00000040: 9fa1 813f e93f 813f addd a13f b2b4 823f
00000050: 29b4 843f 15f6 883f dc2f 8c3f ae3a 7f3f
00000060: 5ae3 8b3f 4d18 bf3f 6ebd 843f a75c 813f
00000070: 674b 813f e597 a63f 9638 aa3f 1384 803f
